(carnd-term1) krishnan@ml:~/workspace/behaviorcloningclassifier$ KERAS_BACKEND=tensorflow python model.py
Using TensorFlow backend.
_________________________________________________________________
Layer (type)                 Output Shape              Param #   
=================================================================
lambda_1 (Lambda)            (None, 64, 64, 3)         0         
_________________________________________________________________
conv2d_1 (Conv2D)            (None, 62, 62, 32)        896       
_________________________________________________________________
activation_1 (Activation)    (None, 62, 62, 32)        0         
_________________________________________________________________
max_pooling2d_1 (MaxPooling2 (None, 31, 31, 32)        0         
_________________________________________________________________
conv2d_2 (Conv2D)            (None, 29, 29, 64)        18496     
_________________________________________________________________
activation_2 (Activation)    (None, 29, 29, 64)        0         
_________________________________________________________________
max_pooling2d_2 (MaxPooling2 (None, 14, 14, 64)        0         
_________________________________________________________________
flatten_1 (Flatten)          (None, 12544)             0         
_________________________________________________________________
dense_1 (Dense)              (None, 64)                802880    
_________________________________________________________________
activation_3 (Activation)    (None, 64)                0         
_________________________________________________________________
dropout_1 (Dropout)          (None, 64)                0         
_________________________________________________________________
dense_2 (Dense)              (None, 21)                1365      
_________________________________________________________________
activation_4 (Activation)    (None, 21)                0         
=================================================================
Total params: 823,637.0
Trainable params: 823,637.0
Non-trainable params: 0.0
_________________________________________________________________
Training Set size:  8410 Validation set size:  935
Epoch 1/25
W tensorflow/core/platform/cpu_feature_guard.cc:45] The TensorFlow library wasn't compiled to use SSE3 instructions, but these are available on your machine and could speed up CPU computations.
…
